src/npc-trainer/data.pth (torch, 3263 bytes, 6 tensors)

l1.weight f4 [8, 16]
-0.047698606 -0.12560031 -0.18387835 -0.22334898 0.5411756 0.15356785 0.21920152 0.43705934
0.008621936 0.20930405 0.017144382 -0.04972514 -0.21640672 0.07845067 -0.106697395 0.12497614
0.8226121 0.7858382 0.84425646 -0.4556446 -0.054849215 -0.38506144 0.046757918 -0.46358204
-0.19035068 -0.071102485 0.14080447 0.33883315 0.35980263 0.1934847 0.090831 0.34627864
-0.24497306 -0.23715284 0.08502801 0.07888392 0.23258546 -0.22672322 -0.19861394 -0.23625803
0.062032223 -0.24051222 -0.19375885 -0.03921935 0.503225 0.47881272 0.4131167 0.22253634
0.71974975 0.57929856 0.67732525 -0.35255453 -0.47174916 0.28103215 -0.4319795 -0.3534911
0.5477836 0.30714795 -0.32308388 -0.029660156 -0.11110312 -0.22633156 -0.11510159 0.09999089
-0.4110787 -0.43288866 -0.43400675 0.6874972 0.35249037 0.18907315 0.7791795 0.5632301
-0.79091847 0.16983102 -0.2175155 -0.2411423 -0.16634151 -0.15758893 -0.19667274 -0.22626373
-0.23106103 -0.21388286 -0.16929422 0.45119908 0.13911325 -0.06813631 0.25679556 0.57495695
-0.12434766 0.21673685 -0.14440417 -0.08240052 -0.22398746 0.01282832 -0.09671706 -0.106425315
-0.34857833 -0.4881475 -0.4571592 -0.10844368 -0.037643395 0.5123437 -0.44991866 0.055927478
0.7894356 0.59771514 0.44034365 0.8006516 0.31020862 0.5777696 0.5148574 0.3708531
-0.24352467 0.31765503 0.28260115 -0.22189753 -0.09821517 0.08506785 0.064019896 -0.22824274
-0.16595107 -0.28045318 0.3404325 0.11360162 0.49006003 0.20662865 0.48409635 0.4919134
00000000: 9d5f 43bd 5e9d 00be 9b4a 3cbe 98b5 64be
00000010: 7c8a 0a3f e440 1d3e 5d76 603e 3ec6 df3e
00000020: 0543 0d3c cd53 563e 6072 8c3c 97ac 4bbd
00000030: b999 5dbe bfaa a03d 2a84 dabd 7ef3 ff3d
00000040: b596 523f b12c 493f 3121 583f 404a e9be
00000050: 92a9 60bd c626 c5be 3b85 3f3d a05a edbe
00000060: 4aeb 42be 2e9e 91bd 0c2f 103e 8a7b ad3e
00000070: 0d38 b83e da20 463e 9a05 ba3d 6f4b b13e
00000080: 38da 7abe 32d8 72be 2a23 ae3d e58d a13d
00000090: e22a 6e3e 222a 68be 7461 4bbe a0ed 71be
000000a0: 8015 7e3d d648 76be b868 46be 78a4 20bd
000000b0: 5bd3 003f f126 f53e 0884 d33e 91e0 633e
000000c0: 8541 383f e94c 143f 3065 2d3f 0782 b4be
000000d0: 1b89 f1be 72e3 8f3e 6b2c ddbe c9fc b4be
000000e0: 8c3b 0c3f 7f42 9d3e 406b a5be dbf9 f2bc
000000f0: 088a e3bd 76c3 67be 62ba ebbd 06c8 cc3d
00000100: e878 d2be 95a3 ddbe 2236 debe d1ff 2f3f
00000110: 9e79 b43e 649c 413e 4f78 473f d92f 103f
00000120: a279 4abf 2fe8 2d3e 62bc 5ebe 02ee 76be
00000130: 6e55 2abe fe5e 21be 9464 49be aeb1 67be
00000140: 439b 6cbe 1c04 5bbe 775b 2dbe 9103 e73e
00000150: b473 0e3e 0d8b 8bbd b57a 833e 6130 133f
00000160: fca9 febd 44f0 5d3e b0de 13be 9bc1 a8bd
00000170: f85c 65be e02d 523c 9813 c6bd 84f5 d9bd
00000180: dc78 b2be 78ee f9be c510 eabe b817 debd
00000190: f62f 1abd f528 033f bd5b e6be 3614 653d
000001a0: 7418 4a3f dc03 193f b974 e13e 81f7 4c3f
000001b0: aad3 9e3e b5e8 133f b2cd 033f 75e0 bd3e
000001c0: 885e 79be aea3 a23e 19b1 903e 1b39 63be
000001d0: 0925 c9bd 0e38 ae3d dd1c 833d 77b8 69be
000001e0: 14ef 29be 8f97 8fbe 2b4d ae3e f7a7 e83d
000001f0: 26e9 fa3e 7696 533e 7adb f73e 13dc fb3e

l1.bias f4 [8]
0.18302728 0.46389717 -0.08546279 0.35248414 0.43235046 0.22747283 0.49236727 0.22833939
00000000: 816b 3b3e ee83 ed3e 1e07 afbd cd78 b43e
00000010: 0a5d dd3e a3ee 683e 9017 fc3e cdd1 693e

l2.weight f4 [8, 8]
-0.11844402 0.058005325 0.1704883 -0.233244 -0.3268433 -0.27399498 1.0125928 0.17759645
0.50337493 0.12150381 0.26135117 -0.77241814 0.6512341 0.16290727 0.7894674 0.14883934
0.1510265 -0.6224489 -0.25673872 -0.42812815 0.7727777 0.4564891 -0.0783969 -0.06843303
0.20392908 -0.22738296 0.2020074 -0.14591973 0.34758982 0.5075398 0.8242955 0.27419633
0.19893527 -0.657988 0.0253529 -0.7603475 1.0329715 0.30474383 0.16989872 -0.3648578
0.023436056 1.4449666 0.16675493 0.6571987 -0.7538992 -0.20714863 0.35203245 0.96032405
-0.191147 -0.01322028 -0.15301923 0.188816 -0.09942678 -0.14536266 0.019260297 -0.31771624
0.15648866 -0.12923782 0.24160352 0.003588646 -0.26570755 -0.10173558 1.0442773 0.33355376
00000000: c792 f2bd fe96 6d3d 7c94 2e3e 84d7 6ebe
00000010: 0158 a7be 1249 8cbe a49c 813f d8db 353e
00000020: 2edd 003f fdd6 f83d d2cf 853e 32bd 45bf
00000030: 47b7 263f 2ad1 263e 891a 4a3f 5769 183e
00000040: b1a6 1a3e d058 1fbf 4273 83be 9d33 dbbe
00000050: c2d4 453f f0b8 e93e 8e8e a0bd 9e26 8cbd
00000060: c9d2 503e 14d7 68be 07db 4e3e fb6b 15be
00000070: 4bf7 b13e 21ee 013f 0805 533f 7663 8c3e
00000080: b0b5 4b3e e771 28bf e3b0 cf3c 22a6 42bf
00000090: 6938 843f 6207 9c3e eef9 2d3e a4ce babe
000000a0: f9fc bf3c aaf4 b83f cec1 2a3e 2d3e 283f
000000b0: 8aff 40bf c51e 54be 993d b43e ccd7 753f
000000c0: 0abc 43be e099 58bc 13b1 1cbe fb58 413e
000000d0: 45a0 cbbd f3d9 14be c5c7 9d3c b4ab a2be
000000e0: 903e 203e eb56 04be ea66 773e 7d2f 6b3b
000000f0: d20a 88be be5a d0bd e1aa 853f 8fc7 aa3e

l2.bias f4 [8]
0.05317185 0.44729987 0.6259945 0.24717253 0.5396348 0.703661 -0.19070248 -0.03726655
00000000: baca 593d 7d04 e53e 2d41 203f cc1a 7d3e
00000010: 8225 0a3f 2123 343f 8347 43be cfa4 18bd

l3.weight f4 [3, 8]
-0.5768407 -1.2178569 -0.39158612 -0.6570539 -0.40712333 1.1493708 0.26874378 -1.1214356
-0.5724328 0.53128165 0.75877696 0.344574 0.70597684 -0.97861683 -0.025458042 -0.015575219
0.8232389 0.0560823 -0.4241548 0.3575828 -0.30426332 -0.12680224 -0.057420123 0.6580202
00000000: d5ab 13bf bce2 9bbf fa7d c8be af34 28bf
00000010: 7872 d0be 951e 933f c998 893e 348b 8fbf
00000020: f58a 12bf 1302 083f 353f 423f 016c b03e
00000030: e6ba 343f a286 7abf 628d d0bc 342f 7fbc
00000040: c9bf 523f 8eb6 653d d12a d9be 1815 b73e
00000050: 67c8 9bbe 72d8 01be 5d31 6bbd 0374 283f

l3.bias f4 [3]
0.20887098 -0.17819807 -0.28394815
00000000: 46e2 553e 8e79 36be a761 91be
