src/npc-ai-trainer/data.pth (torch, 2815 bytes, 6 tensors)

l1.weight f4 [8, 8]
-0.22272411 -0.22257155 -0.32957318 0.62628907 0.34032533 0.36513692 0.093141355 0.57710975
-0.20283899 -0.2028077 -0.20302917 -0.29546845 -0.01798433 0.3131359 0.35265192 0.5411097
-0.3432331 -0.18285517 -0.30547285 -0.28919512 0.43923345 0.14529106 0.06519532 0.6958999
0.16488704 -0.0677968 -0.12785247 -0.018810183 0.22300932 -0.2985665 -0.3526037 0.14319694
-0.31656978 -0.3157399 -0.27591264 0.3914515 0.13634314 0.39110953 0.5853088 0.28027737
0.5145657 0.7663772 0.6146753 -0.5475609 -0.017685909 -0.4438581 -0.005097565 -0.5471158
-0.20099004 -0.20096283 -0.2072609 0.46506232 0.21583687 0.46487164 0.48049137 0.43688348
-0.36614177 -0.14666493 -0.36610678 0.255377 0.46933517 0.15983509 0.024523616 0.6165504
00000000: ca11 64be cce9 63be d1bd a8be 7b54 203f
00000010: 1f3f ae3e 3af3 ba3e e5c0 be3d 77bd 133f
00000020: 06b5 4fbe d2ac 4fbe e1e6 4fbe a447 97be
00000030: e053 93bc 5953 a03e cb8e b43e 2a86 0a3f
00000040: 40bc afbe 633e 3bbe f066 9cbe 6211 94be
00000050: 35e3 e03e 2ec7 143e 2085 853d 7f26 323f
00000060: 26d8 283e 0cd9 8abd c2eb 02be d017 9abc
00000070: 8e5c 643e b5dd 98be 7988 b4be 38a2 123e
00000080: 6f15 a2be a9a8 a1be 6c44 8dbe 556c c83e
00000090: 899d 0b3e 823f c83e ccd6 153f 8480 8f3e
000000a0: 94ba 033f 4c31 443f 5c5b 1d3f f32c 0cbf
000000b0: 0ae2 90bc 5e41 e3be 7909 a7bb c80f 0cbf
000000c0: 55d0 4dbe 33c9 4dbe 343c 54be a61c ee3e
000000d0: 5704 5d3e a803 ee3e f702 f63e 31af df3e
000000e0: ef76 bbbe 552f 16be 5972 bbbe c6c0 823e
000000f0: b34c f03e cfab 233e c0e5 c83c 3fd6 1d3f

l1.bias f4 [8]
0.22254987 0.20269299 0.18251896 -0.26077676 0.31656924 0.54755706 0.20093416 0.36613783
00000000: 1de4 633e c08e 4f3e 40e6 3a3e 8884 85be
00000010: 5d15 a23e b32c 0c3f afc1 4d3e 6b76 bb3e

l2.weight f4 [8, 8]
-0.14032905 -0.07998344 0.12305909 0.27966222 -0.265135 0.6376255 -0.5196379 -0.14079538
-0.31534114 0.33837453 0.22571245 0.3050436 -0.25937253 -0.010198653 0.15483865 -0.020043343
-0.39309955 0.12998709 -0.34376675 0.33981845 0.23434782 0.7239717 -0.098421015 -0.36255875
-0.6341958 0.020685287 -0.21429852 -0.29550564 -0.23656243 0.7586657 -0.1029385 0.088690795
0.59762084 0.5331552 0.45418808 0.27335462 0.62851715 -0.3376371 0.60067344 0.6014275
0.042639405 -0.25225854 -0.29639247 0.19665 0.12379697 -0.10772751 -0.09618804 0.07730508
-0.44012836 -0.29996157 -0.18490668 -0.32948866 -0.16064529 0.25010958 -0.15854932 -0.21616884
0.20906486 0.08477958 0.42911607 0.04043311 0.45035738 -0.39423415 0.6871826 0.5877395
00000000: 6bb2 0fbe 5cce a3bd 6706 fc3d e32f 8f3e
00000010: c6bf 87be 6d3b 233f fd06 05bf aa2c 10be
00000020: 6574 a1be 6d3f ad3e 2a21 673e ad2e 9c3e
00000030: 7acc 84be 4018 27bc 068e 1e3e f031 a4bc
00000040: 5844 c9be 561b 053e 3202 b0be affc ad3e
00000050: e0f8 6f3e 3656 393f f590 c9bd 4da1 b9be
00000060: a85a 22bf 3174 a93c 1271 5bbe 844c 97be
00000070: 6c3d 72be ea37 423f 6cd1 d2bd 85a3 b53d
00000080: aefd 183f dc7c 083f 578b e83e 23f5 8b3e
00000090: 80e6 203f c5de acbe bcc5 193f 27f7 193f
000000a0: a8a6 2e3d 0828 81be c1c0 97be 9e5e 493e
000000b0: 4489 fd3d 3ea0 dcbd 3cfe c4bd 2052 9e3d
000000c0: 8158 e1be 9094 99be 2d58 3dbe bdb2 a8be
000000d0: 3380 24be 5d0e 803e c15a 22be 5d5b 5dbe
000000e0: 1915 563e eba0 ad3d 1ab5 db3e 309d 253d
000000f0: 3e95 e63e 0fd9 c9be 33eb 2f3f 1976 163f

l2.bias f4 [8]
0.6913446 -0.20379582 0.4584976 0.7190143 0.35857102 -0.114533216 0.69271135 0.43422502
00000000: f6fb 303f daaf 50be 33c0 ea3e 5211 383f
00000010: 9f96 b73e 6490 eabd 8855 313f be52 de3e

l3.weight f4 [2, 8]
0.6080404 0.16451952 0.4098953 0.18166333 -0.565895 0.3024899 0.6651694 -0.7003373
-0.6998344 -0.2086392 -0.67466676 -0.81369513 0.8110024 -0.14910202 -0.66487944 0.7201913
00000000: 89a8 1b3f ce77 283e ccdd d13e f405 3a3e
00000010: 7fde 10bf f5df 9a3e 8b48 2a3f 4e49 33bf
00000020: 5928 33bf 84a5 55be f6b6 2cbf 534e 50bf
00000030: da9d 4f3f 33ae 18be 8a35 2abf 755e 383f

l3.bias f4 [2]
0.019568214 -0.06735999
00000000: 854d a03c 09f4 89bd
